…
          "base_uri": "https://localhost:8080/"
        },
        "id": "hOHvNcvjf_oz",
        "outputId": "2ddf713a-c14c-4592-cdc3-1467ff1f9c92"
      },
      "execution_count": 114,
      "outputs": [
        {
          "output_type": "stream",
          "name": "stdout",
          "text": [
            "Model: \"SoftOrderingCNN1D\"\n",
            "_________________________________________________________________\n",
            " Layer (type)                Output Shape              Param #   \n",
            "=================================================================\n",
            " batchnorm1 (BatchNormalizat  (None, 206)              824       \n",
            " ion)                                                            \n",
            "                                                                 \n",
            " dropout_inputs (Dropout)    (None, 206)               0         \n",
            "                                                                 \n",
            " dense_inputs (Dense)        (None, 1024)              211968    \n",
            "                                                                 \n",
            " reshape (Reshape)           (None, 16, 1, 64)         0         \n",
            "                                                                 \n",
            " batchnorm2 (BatchNormalizat  (None, 16, 1, 64)        256       \n",
            " ion)                                                            \n",
            "                                                                 \n",
            " firstConv (Conv1D)          (None, 16, 1, 32)         6176      \n",
            "                                                                 \n",
            " avgPool1 (AveragePooling2D)  (None, 8, 1, 32)         0         \n",
            "                                                                 \n",
            " batchnorm3 (BatchNormalizat  (None, 8, 1, 32)         128       \n",
            " ion)                                                            \n",
            "                                                                 \n",
            " secondConv (Conv1D)         (None, 8, 1, 32)          3104      \n",
            "                                                                 \n",
            " batchnorm4 (BatchNormalizat  (None, 8, 1, 32)         128       \n",
            " ion)                                                            \n",
            "                                                                 \n",
            " thirdConv (Conv1D)          (None, 8, 1, 32)          5152      \n",
            "                                                                 \n",
            " batchnorm5 (BatchNormalizat  (None, 8, 1, 32)         128       \n",
            " ion)                                                            \n",
            "                                                                 \n",
            " fourthConv (Conv1D)         (None, 8, 1, 32)          5152      \n",
            "                                                                 \n",
            " avgPool2 (AveragePooling2D)  (None, 4, 1, 32)         0         \n",
            "                                                                 \n",
            " flatten_33 (Flatten)        (None, 128)               0         \n",
            "                                                                 \n",
            " batchnorm6 (BatchNormalizat  (None, 128)              512       \n",
            " ion)                                                            \n",
            "                                                                 \n",
            " dropout_47 (Dropout)        (None, 128)               0         \n",
            "                                                                 \n",
            " dense_47 (Dense)            (None, 1)                 129       \n",
            "                                                                 \n",
            "=================================================================\n",
            "Total params: 233,657\n",
            "Trainable params: 232,669\n",
            "Non-trainable params: 988\n",
            "_________________________________________________________________\n"
          ]
        }
…
